examples/100r100r2/model.pt (torch, 45431 bytes, 6 tensors)

seq.0.weight f4 [100, 4]
0	0xbd033d7b	-0.032041054
1	0x3e3613b2	0.1778095
2	0xbe81c967	-0.2534897
3	0xbc9ece74	-0.019385554
4	0xbe445129	-0.19171585
5	0x3cf19c72	0.029493544
6	0xbea313d5	-0.31851068
7	0x3ec39c97	0.38205406
8	0xbe2168a3	-0.15762572
9	0xbed030c7	-0.40662214
10	0xbfa36906	-1.2766426
11	0xbf021699	-0.5081573
12	0x3f7adf09	0.97996575
13	0xbf647826	-0.8924583
14	0xbefdb805	-0.49554458
15	0x3ed02fef	0.4066157
16	0xbe802117	-0.25025246
17	0xbf9d2262	-1.2276118
18	0x3f88d40b	1.068971
19	0x3e8d4bd2	0.2759691
20	0xbd2ea7b0	-0.042640388
21	0x3ee8a517	0.45438454
22	0xbef7ebe7	-0.48422167
23	0xbd23ba2f	-0.03997248
24	0xbe863008	-0.2620852
25	0xbe428dcb	-0.18999402
26	0x3ebdaad0	0.37044382
27	0xbdd22e5b	-0.10262748
28	0xbf12edce	-0.5739411
29	0xbd5d5596	-0.0540367
30	0xbf4d5172	-0.802024
31	0xbbf8ae13	-0.0075891106
32	0xbc560199	-0.013061904
33	0x3ea7ba7f	0.32759473
34	0x3d13acc2	0.036053427
35	0xbdb9bfcf	-0.09069788
36	0xbe6456d4	-0.22298747
37	0x3e96416a	0.29346782
38	0xc00820c7	-2.1270006
39	0x3e382fcf	0.17986988
40	0x3e8d7b92	0.2763334
41	0xbe33bab0	-0.17551684
42	0x3f7433d4	0.95391583
43	0x3ee3223a	0.4436205
44	0xbd4951f7	-0.049150433
45	0xbc8b1e00	-0.016982079
46	0xbcd5eb9d	-0.026113326
47	0xbf82867c	-1.0197291
48	0x3fa3dab4	1.2801118
49	0xbed0289e	-0.40655988
50	0x3f4a9603	0.7913515
51	0x3e14c8de	0.1452975
52	0x3ea6a4c7	0.3254759
53	0xbecddef2	-0.40209156
54	0xbc38f776	-0.011289468
55	0xbf4f9982	-0.8109361
56	0xbd51ed1f	-0.051251527
57	0x3eba6124	0.36402237
58	0x3f999cf0	1.2001019
59	0xbdb39147	-0.08767944
60	0xbe77f951	-0.242162
61	0xbc6654cd	-0.014058304
62	0xbdb6fcbf	-0.08934926
63	0x3ee75626	0.45182914
64	0xbdff37aa	-0.12461789
65	0x3e270309	0.16309752
66	0xbeb9845c	-0.36233795
67	0x3ca17d20	0.019712985
68	0x3e83af5d	0.2571973
69	0xbedddfc3	-0.4333478
70	0x3f4babcb	0.7955901
71	0xbf2fe28b	-0.6870505
72	0xbdda2d24	-0.10653141
73	0xbf2f80a1	-0.6855565
74	0xbecc997e	-0.39960855
75	0x3f4b3945	0.7938426
76	0xbe7b6432	-0.2454994
77	0xbe3262c2	-0.17420486
78	0xbfa5e21f	-1.2959632
79	0x3e9b7e2b	0.30369696
80	0xbe046dae	-0.12932464
81	0x3da3e605	0.08002857
82	0x3ea5b501	0.32364658
83	0x3ecfb81a	0.40570146
84	0x3dbe056d	0.09278379
85	0x3e49a72d	0.19692679
86	0xbfcb6c76	-1.5892475
87	0x3d8ee823	0.0697787
88	0xbe84db30	-0.25948477
89	0xbe98f394	-0.29873335
90	0x3f85341a	1.0406525
91	0xbdcaad06	-0.09896283
92	0x3f39a020	0.72509956
93	0xbeb3f8d4	-0.35150778
94	0x3fffd849	1.998788
95	0xbe7f6481	-0.24940683
96	0xbfaa8483	-1.3321689
97	0xbf5e3b77	-0.86809486
98	0xbfa6e8a3	-1.3039745
99	0x3d28feb7	0.04125854
100	0xbe0fa2c1	-0.1402693
101	0x3d50e4e9	0.050999556
102	0xbf3fc08a	-0.74903166
103	0x3eca5469	0.39517525
104	0xbf79158c	-0.972985
105	0xbf0ec04b	-0.55762166
106	0xbf0ae0cf	-0.5424928
107	0xbe24dcc3	-0.16099839
108	0xbf38a991	-0.7213374
109	0xbea86054	-0.32885993
110	0xbff1fded	-1.8905617
111	0x3d45e152	0.048310585
112	0xbf293034	-0.6608918
113	0xbee4a086	-0.4465372
114	0xbf73273b	-0.94981736
115	0x3f27f76d	0.65611917
116	0x3d6a7e7a	0.057249524
117	0x3ea18297	0.31544945
118	0x3ecb6d2d	0.39731732
119	0xbe5f8a8b	-0.21830194
120	0xbd41d4ef	-0.04732221
121	0x3dd64185	0.104617156
122	0xbee6f235	-0.45106664
123	0xbee16afe	-0.4402694
124	0xbf2b0f4d	-0.6682022
125	0xbed84c0c	-0.4224552
126	0xbdbfe083	-0.09368994
127	0xbf3298db	-0.6976449
128	0x3ec3f9ce	0.38276523
129	0xbe887121	-0.2664881
130	0x3e0ee3bc	0.13954061
131	0x3f3606d2	0.71104157
132	0x3e906ab9	0.28206423
133	0xbf38c840	-0.7218056
134	0xbe7c6aac	-0.24650067
135	0x3f92cfe6	1.1469696
136	0xbea4e7b6	-0.3220803
137	0xbc338aa7	-0.01095835
138	0x3de24182	0.11047651
139	0x3e0851e7	0.13312493
140	0x3f22b857	0.6356253
141	0xbe1fb260	-0.15595388
142	0xbf987d67	-1.191327
143	0xbd6efe88	-0.05834821
144	0xbe7845dc	-0.24245399
145	0x3ed0e2b4	0.4079796
146	0xbf0ceb76	-0.55046785
147	0x3d8bbe95	0.0682346
148	0x3d6e55c7	0.058187272
149	0x3e1511cc	0.1455757
150	0xbea6cb6a	-0.32577068
151	0x3ea49aaa	0.3214925
152	0x3dd3ffe0	0.10351539
153	0xbda8de8e	-0.08245574
154	0x3f53a616	0.826753
155	0x3d92cf1e	0.07168411
156	0xbd5891cd	-0.05287342
157	0x3e77308a	0.2413961
158	0xc000eada	-2.0143342
159	0xbeeb3f83	-0.45946893
160	0x3f518f13	0.8185894
161	0xbd683d47	-0.056699064
162	0x3fa663ca	1.2999203
163	0x3a62ab35	0.00086467277
164	0xbfbcb0b7	-1.4741429
165	0xbf99108b	-1.1958174
166	0xbf7b1c4e	-0.98090065
167	0x3ec964ff	0.39334866
168	0xbd889ea7	-0.066708855
169	0xbd9cf398	-0.07663649
170	0x3e90b6a7	0.28264353
171	0x3f4a5926	0.7904228
172	0xbd8eceea	-0.069730595
173	0xbe7a0aa9	-0.24418129
174	0x3db9571e	0.090498194
175	0xbf121905	-0.57069427
176	0x3d411a6c	0.04714434
177	0xbe17df88	-0.14831364
178	0x3f4bc28d	0.79593736
179	0x3ed3835b	0.41311154
180	0x3e8fae49	0.28062657
181	0xbe713386	-0.23554811
182	0xbfea99f8	-1.8328238
183	0x3e2bd10b	0.16778962
184	0x3b3d4747	0.0028881596
185	0x3e8142bf	0.25246236
186	0x3e51e63e	0.20497987
187	0x3ee2f8d2	0.4433046
188	0x3d6af260	0.057360053
189	0x3f1c53cf	0.6106538
190	0xbf90ff5d	-1.1327931
191	0xbd8344c5	-0.06409601
192	0x3ec1f6c2	0.37883574
193	0x3d16c378	0.036807507
194	0x3eef65bf	0.46757314
195	0x3e1020aa	0.1407496
196	0x3ee0c819	0.43902662
197	0xbfb465a6	-1.4093521
198	0xbea3e290	-0.3200879
199	0x3f6948ca	0.9112669
200	0x3e3b3f05	0.18285759
201	0x3e67c1d6	0.22632536
202	0x3e707ba5	0.23484667
203	0x3b7fc983	0.0039030022
204	0x3ebf2f20	0.3734064
205	0xbdc439e7	-0.095813565
206	0xbe8ebedd	-0.27879992
207	0x3c6e012f	0.014526649
208	0xbe3b6565	-0.18300398
209	0x3dfc3117	0.12314051
210	0xbf57f662	-0.84360325
211	0xbd8a5c4d	-0.06755886
212	0xbe48e466	-0.19618377
213	0x3e9e37a5	0.30901828
214	0xbe3363af	-0.17518495
215	0xbdbd7d17	-0.092523746
216	0x3ce06a52	0.027394447
217	0x3e6863bd	0.22694297
218	0x3f836b16	1.0267055
219	0x3db041ea	0.08606322
220	0xbb7574a4	-0.0037453556
221	0x3ebaabf5	0.36459318
222	0xbd135898	-0.03597316
223	0x3e2fd985	0.17172821
224	0x3f2429ef	0.64126486
225	0xbeb318df	-0.34979913
226	0xbeee0cb3	-0.46494064
227	0x3f2a46a8	0.6651406
228	0xbef4d77b	-0.4782065
229	0x3e5e3371	0.21699311
230	0xbf8043ce	-1.0020692
231	0xbee150e8	-0.4400704
232	0xbf0f111b	-0.55885476
233	0xbf74d227	-0.9563317
234	0x3f70d25b	0.94070977
235	0xbefb0d6a	-0.49033672
236	0xbf2db2de	-0.67851055
237	0xbe2ba475	-0.16761954
238	0x3ede5fcb	0.4343246
239	0x3c691b8f	0.014227762
240	0xbe80d29e	-0.25160688
241	0x3e9dedf6	0.30845612
242	0xbf1dbe3d	-0.61618406
243	0x3d8e0c57	0.069359474
244	0x3eef70b9	0.46765688
245	0xbe0b99fa	-0.13632956
246	0xbf35ac50	-0.70966053
247	0xbdd3e9a8	-0.10347301
248	0x3dad304e	0.08456479
249	0x3bf4479b	0.007454825
250	0xbf5b0dc4	-0.8556788
251	0xbf1ab929	-0.6043878
252	0x3ef986e5	0.4873573
253	0x3e4407bf	0.1914358
254	0x3dd7b4f6	0.105325624
255	0x3de503ec	0.11182389

seq.0.bias f4 [100]
0	0xbeb00710	-0.34380388
1	0x3f2c4eee	0.6730794
2	0xbf27233e	-0.6528815
3	0x3ebefc96	0.37302083
4	0x3de2797d	0.11058328
5	0xbf83eb37	-1.0306157
6	0x3f85d597	1.0455807
7	0x3f728e59	0.94748455
8	0xbff4409b	-1.9082216
9	0xbf1e888d	-0.6192711
10	0xbf4566ed	-0.7711018
11	0xbf9f38a7	-1.2439164
12	0xbfce7678	-1.6129904
13	0xbe8aab82	-0.27083975
14	0xc08341a3	-4.1017623
15	0x3ee405ee	0.44535774
16	0xbdf29836	-0.11845438
17	0x3e0409f2	0.12894419
18	0xbe85224b	-0.26002726
19	0xbf8811b8	-1.0630407
20	0xbf2847c6	-0.6573452
21	0xbfc6ba95	-1.552569
22	0x3f3f73d1	0.74786097
23	0xbfa7c4e1	-1.3106958
24	0xc00f17f8	-2.235838
25	0x3fb81a24	1.4382977
26	0x3f497ff7	0.78710884
27	0x3f6d71a6	0.9275154
28	0x3f4a0b4f	0.78923506
29	0xbf7ad543	-0.9798166
30	0xc00ce299	-2.2013304
31	0x3db63cc1	0.08898307
32	0xbf3c3b37	-0.73527855
33	0xbd8b74e5	-0.06809405
34	0x3dda7004	0.106658965
35	0xbf06d28c	-0.5266502
36	0xbf674fdb	-0.90356225
37	0xbf237d64	-0.63863206
38	0x3f14f685	0.5818866
39	0xbda73e56	-0.081661865
40	0x3e918ad1	0.2842622
41	0x3caf6f2e	0.02141532
42	0xbf70ed84	-0.9411242
43	0x3faa3b27	1.3299302
44	0x3f1229c5	0.57094985
45	0x3d2b442c	0.04181306
46	0xbfa6c164	-1.3027768
47	0xbff28f80	-1.8950043
48	0x3fc955d4	1.5729318
49	0x3ecd0278	0.40040946
50	0xbd7b1609	-0.06130031
51	0x3fbb36b2	1.4626067
52	0x3fd7dcdc	1.6864276
53	0xbf9c2dec	-1.2201514
54	0x3f61f18a	0.88259184
55	0xbfbbc48e	-1.4669359
56	0x3f16ca39	0.5890232
57	0xbed56614	-0.41679442
58	0xbe320f85	-0.17388733
59	0xbfe95947	-1.823037
60	0xbe0bb950	-0.1364491
61	0x3f706a16	0.93911874
62	0xbe106681	-0.14101602
63	0xc01cb3cc	-2.448474
64	0xbfac2ba9	-1.3450824
65	0x3fc7915e	1.5591238
66	0xbf7d1a90	-0.98868656
67	0xbedd75f5	-0.43254057
68	0xbfb04a81	-1.3772737
69	0x3f8ec533	1.115393
70	0xbf872730	-1.0558834
71	0x3d568c79	0.05238006
72	0xbf25c2e8	-0.6475053
73	0xbf58a6de	-0.8462962
74	0x3f62f95b	0.88661736
75	0xc01534ca	-2.331347
76	0x3f9b12ef	1.2115153
77	0xbede22b0	-0.4338584
78	0x3fa01900	1.2507629
79	0x3ee44cda	0.44589883
80	0x4029cce4	2.6531305
81	0x3f2cd916	0.67518747
82	0xbdb4df40	-0.08831644
83	0x3d305749	0.04305199
84	0xbf38df5c	-0.7221582
85	0x3ef859c8	0.48505998
86	0xbe799be1	-0.2437587
87	0xbf0c467e	-0.5479506
88	0x3e1db9a9	0.15402855
89	0xbf318b67	-0.69353336
90	0xbf55bfb6	-0.8349565
91	0xbeceabc3	-0.4036542
92	0xbf505a70	-0.81387997
93	0xbed74683	-0.42045984
94	0x3f4aed06	0.7926792
95	0x3f037018	0.51342916
96	0x3fa47c97	1.2850522
97	0xbf420493	-0.7578823
98	0x3e8ecd70	0.2789111
99	0x3e9304a7	0.28714487

seq.2.weight f4 [100, 100]
0	0xbd8e36e5	-0.06944064
1	0x3d7080a6	0.05871644
2	0xbcec0ee0	-0.028815687
3	0x3d91cd06	0.07119183
4	0xbe9d2bb0	-0.30697393
5	0xbd4efa79	-0.050531838
6	0x3db09d4b	0.08623751
7	0xbe9ec9cf	-0.31013343
8	0x3cbe6dd9	0.023245739
9	0x3dc9f0bf	0.09860372
10	0x3e592d4e	0.21208689
11	0x3de531dc	0.111911505
12	0xbe4df217	-0.20111881
13	0xbcde3dcc	-0.027129076
14	0xbd288a41	-0.041147474
15	0x3c8781d4	0.016541399
16	0xbd3aacf9	-0.045575116
17	0xbec2bd54	-0.3803507
18	0x3d52ba1f	0.05144703
19	0xbd2876c9	-0.041128907
20	0xbb2ade4f	-0.0026072448
21	0x3d438372	0.047732778
22	0x3db1c09c	0.086793154
23	0xbebf676a	-0.37383586
24	0xba674850	-0.0008822726
25	0x3e362986	0.17789277
26	0xbeba1c53	-0.36349735
27	0xbddbbb00	-0.10729027
28	0xbe98f46d	-0.29873982
29	0x3e305f04	0.17223746
30	0x3e87bc0b	0.26510653
31	0x3df9e75b	0.12202331
32	0x3d536f65	0.051619906
33	0xbe1179cf	-0.14206623
34	0xbd2ae690	-0.041723788
35	0xbe041167	-0.12897263
36	0xbd6bcf6e	-0.057570867
37	0x3d16d45a	0.036823608
38	0x3df3d9c7	0.11906772
39	0xbf01b2c0	-0.50663376
40	0xbf2b48af	-0.6690778
41	0xbea0f516	-0.31436986
42	0xbef65670	-0.48112822
43	0xbd864189	-0.065554686
44	0xbdcbb612	-0.099468365
45	0xbc1df006	-0.009639746
46	0xbda8f914	-0.08250633
47	0xbd4028bb	-0.046913844
48	0x3e3b19dc	0.18271583
49	0xbd1c20ac	-0.038117096
50	0x3e335e82	0.1751652
51	0x3d6010d4	0.05470355
52	0xbe1f4bb1	-0.15556218
53	0x3d4ad371	0.049518052
54	0x3ed334b9	0.41251162
55	0xbeaf5252	-0.34242493
56	0x3cc03fef	0.023467986
57	0x3daae982	0.08345319
58	0x3e36e2c0	0.17859936
59	0x3e2f0a12	0.17093685
60	0xbcba54e7	-0.022745563
61	0x3c9dbe6c	0.01925584
62	0xbd165f32	-0.03671188
63	0xbc93b70b	-0.018031618
64	0x3e13aab8	0.14420593
65	0x3d8d1052	0.068878785
66	0xbc33ec92	-0.010981696
67	0x3d67d65d	0.056600917
68	0xbe92e5a8	-0.2869084
69	0xbe82fa39	-0.2558153
70	0x3e091aa0	0.13389063
71	0x3e3379fd	0.17527004
72	0xbd206ee9	-0.039168272
73	0x3e0d3d0d	0.1379282
74	0xbe913d2a	-0.28366977
75	0xbe14aea7	-0.1451975
76	0xbdd7712b	-0.10519632
77	0x3da5cfd1	0.080962785
78	0x3ece506c	0.40295732
79	0x3d40eefc	0.047102913
80	0xbdb55c84	-0.088555366
81	0x3ec287f0	0.37994337
82	0xbea626bd	-0.3245143
83	0x3e05eaa3	0.13077788
84	0xbba99eac	-0.005176386
85	0xbd97ef22	-0.07418658
86	0xbcbd56b6	-0.023112636
87	0xbdd400b0	-0.10351694
88	0x3d3727ea	0.0447158
89	0xbe7893af	-0.24275087
90	0x3e422a5f	0.18961476
91	0x3d2cd96a	0.04219953
92	0x3d06cb8f	0.032908972
93	0x3d7b3b66	0.061335944
94	0xbeae95a6	-0.34098548
95	0xbbc23958	-0.005927246
96	0xbe833e4a	-0.2563346
97	0x3e23556c	0.15950555
98	0xbe0de752	-0.13857773
99	0xbe14d037	-0.14532553
100	0xbdb132f3	-0.08652296
101	0x3d51ab30	0.051188648
102	0xbd04bf3a	-0.03240893
103	0x3d5fe46e	0.054661207
104	0xbdd6551f	-0.10465454
105	0xba12e01e	-0.0005602854
106	0xbd56f65e	-0.052481048
107	0x3d22a70e	0.039710097
108	0xbcf72911	-0.03017095
109	0x3cea5f38	0.028609857
110	0xbd6d5804	-0.057945266
111	0xbd1dc8b8	-0.0385215
112	0xbe223fe8	-0.15844691
113	0x3c8caa50	0.017171055
114	0xbd1bc954	-0.0380338
115	0xbd6e048b	-0.0581098
116	0x3d22abcc	0.03971462
117	0x3ce03bab	0.027372202
118	0x3dc21ad4	0.09477773
119	0xbd28b2cb	-0.041186135
120	0xbd652962	-0.05594767
121	0x3d99ad5e	0.0750377
122	0xbcf7fc3e	-0.030271646
123	0xbce76f07	-0.028251184
124	0x3e2f673c	0.17129225
125	0xbd3a6582	-0.04550696
126	0x3c8c08d1	0.017094048
127	0xbd59d2b0	-0.053179443
128	0xbcc4d3d7	-0.024026794
129	0x3d1e7bd5	0.038692314
130	0xbd75c8ed	-0.06000607
131	0xbde5d06d	-0.11221395
132	0x3d7dc800	0.061958313
133	0xbd7b9d77	-0.061429467
134	0xbd22457d	-0.03961705
135	0xbd55758b	-0.05211405
136	0xbb327368	-0.0027229432
137	0xbd8dc5ba	-0.06922479
138	0xbdcc49ff	-0.09975051
139	0xbe025bac	-0.12730283
140	0x3da63097	0.081147365
141	0x3d94c68c	0.07264432
142	0x3c159da4	0.009131823
143	0x3d4b643e	0.049656145
144	0x3a67160a	0.0008815235
145	0x3cc3a494	0.023882188
146	0xbda60e61	-0.08108211
147	0xbd0c9ccd	-0.034329224
148	0xbcfdb34d	-0.030969286
149	0xbb986eb1	-0.0046518673
150	0xbdaf1cd1	-0.08550418
151	0x3dd2d99f	0.10295414
152	0xbd9d3ad6	-0.07677238
153	0x3de2f207	0.11081319
154	0xbdf51740	-0.11967325
155	0x3db1af15	0.08675972
156	0x3c84ca4a	0.01620974
157	0xbcb14a04	-0.021641739
158	0xbdb819d8	-0.08989304
159	0x3cd81a5e	0.02637976
160	0xbdae1180	-0.084994316
161	0xbd28401a	-0.041076757
162	0xbcea7cb9	-0.028623926
163	0xbdd4cacf	-0.10390245
164	0xbd7ad8ab	-0.061241787
165	0x3d059356	0.032611214
166	0xbd5c2229	-0.053743515
167	0xbd032397	-0.032016363
168	0xbc607943	-0.013700786
169	0x3cd54d55	0.026037851
170	0xbd9388de	-0.0720384
171	0x3d779195	0.060441572
172	0x3d8ba7d4	0.0681912
173	0xbc1be546	-0.009515112
174	0xbd6ddc74	-0.05807157
175	0xbaeba050	-0.0017976854
176	0xbda9474a	-0.082655504
177	0x3cda5ccb	0.026655575
178	0xbd980aab	-0.0742391
179	0xbd9628ff	-0.07332038
180	0x3dc9a44b	0.098457895
181	0x3dc6b611	0.09702695
182	0xbb551aa3	-0.0032517097
183	0xbc19d49e	-0.009389071
184	0xbcd191ba	-0.025582183
185	0x3c4d14ff	0.012517213
186	0xbb88c8ba	-0.004174319
187	0x3c913d78	0.017729506
188	0xbc7283fe	-0.014801977
189	0xbd497837	-0.04918691
190	0x3d5e08a7	0.05420747
191	0xbd80bf7b	-0.06286522
192	0xbd414234	-0.047182277
193	0xbdac558e	-0.08414756
194	0x3d1507ee	0.036384515
195	0x3d818922	0.06324984
196	0x3ce9591b	0.028484872
197	0xbd62e65e	-0.055395477
198	0x3d7cf940	0.06176114
199	0x3d3f0e62	0.046644576
200	0x3cfab50e	0.030603912
201	0xbdddf40e	-0.10837565
202	0xbc6a1e4d	-0.014289451
203	0xbeb37eb1	-0.35057595
204	0xbc08478e	-0.008317841
205	0x3ce5f949	0.02807297
206	0xbe094094	-0.13403541
207	0x3c401e23	0.011725935
208	0x3b69ee73	0.0035695105
209	0x3eba9068	0.36438298
210	0xbdb9fefa	-0.09081836
211	0x3e840056	0.25781506
212	0x3de7ebb6	0.11324255
213	0x3e3409a4	0.17581803
214	0x3dc1dead	0.094663
215	0x3d202271	0.039095346
216	0xbb9b6138	-0.004741814
217	0xbe7a7f3f	-0.24462603
218	0xbd8872f2	-0.06662549
219	0xbe827d44	-0.25486195
220	0xbdacf609	-0.08445365
221	0x3eb92f96	0.36169118
222	0x3d7a4d87	0.061109092
223	0xbe3ba9c4	-0.18326479
224	0x3cf17e3a	0.029479135
225	0xbe63fb27	-0.22263776
226	0xbe2fbbb6	-0.1716145
227	0x3c2a95e1	0.0104117105
228	0xbdf958c5	-0.121751346
229	0xbe856046	-0.26050013
230	0x3e26918d	0.1626646
231	0xbe60cebb	-0.21953861
232	0x3b285d4b	0.0025690373
233	0x3d3c8c8f	0.046032485
234	0xbdfb5c0e	-0.122734174
235	0xbd7fd665	-0.062460322
236	0x3b409f72	0.0029391912
237	0xbda213d5	-0.07913939
238	0x3e30aa1e	0.17252395
239	0x3b6ec91a	0.0036435784
240	0xbbfaea64	-0.007657336
241	0xbe269239	-0.16266717
242	0x3d86488b	0.06556805
243	0xbd30460d	-0.043035556
244	0xbdaf7e81	-0.085690506
245	0xbe6169b5	-0.2201298
246	0xbd9f5da1	-0.0778153
247	0x3e20e996	0.15714106
248	0xbe2345d5	-0.15944608
249	0x3d9d52ec	0.07681832
250	0xbe562246	-0.20911512
251	0xbe340fd1	-0.17584158
252	0xbe4a32c8	-0.19745934
253	0x3cd0bb9e	0.025480088
254	0xbed573a8	-0.416898
255	0x3debbe74	0.115109354

seq.2.bias f4 [100]
0	0x3cab79e0	0.020932138
1	0x3d4da903	0.05021001
2	0xbeb73b07	-0.35787222
3	0x3e0a2828	0.13491881
4	0xbe7a3d8d	-0.24437542
5	0x3c44208e	0.011970652
6	0xbec52c35	-0.3851029
7	0x3d85ae60	0.065274
8	0x3d0b1abb	0.03396104
9	0x3d699a08	0.05703166
10	0x3ec18e86	0.3780405
11	0xbdd6b31c	-0.10483381
12	0x3e2155fd	0.15755458
13	0x3e98fa7b	0.298786
14	0x3ce6473e	0.028110143
15	0x3e5e334a	0.21699253
16	0xbd6d2228	-0.057893902
17	0xbd7fe9eb	-0.06247894
18	0x3d34d6c9	0.044150148
19	0x3d9ef765	0.077620305
20	0x3dfca820	0.12336755
21	0x3e93ef76	0.28893632
22	0x3c0ffa73	0.008787739
23	0x3db9803e	0.090576634
24	0x3dd8ea7d	0.105916
25	0xbe751259	-0.2393278
26	0xbd6423a3	-0.05569805
27	0xbe196f4a	-0.1498386
28	0xbd381c98	-0.044949144
29	0x3d17b40b	0.037036937
30	0x3d75d6ec	0.06001942
31	0xbd76062d	-0.060064483
32	0xbe2fd4a7	-0.17170964
33	0xbd9df920	-0.077135324
34	0xbdb3ccd9	-0.08779306
35	0xbaa8f27e	-0.0012889651
36	0xbaadc044	-0.0013256152
37	0xbf14dc0f	-0.5814828
38	0x3dc03b86	0.09386353
39	0x3f295387	0.6614308
40	0xbd5ac5e6	-0.053411387
41	0x3f32f0cd	0.6989868
42	0xbcc2db6b	-0.023786267
43	0x3ea46be9	0.3211358
44	0x3da3d74e	0.080000505
45	0x3cf4eaf6	0.029897194
46	0x3e3af63c	0.18257993
47	0xbe12eeff	-0.14348982
48	0xbd0d7ffa	-0.034545876
49	0x3da7806c	0.081787914
50	0x3e7bba23	0.24582724
51	0xbb8abb12	-0.0042337263
52	0xbd6a2125	-0.057160515
53	0x3e6440c9	0.22290339
54	0x3ed3c4bd	0.41361037
55	0x3d6bd090	0.057571948
56	0x3bc67dc5	0.0060574734
57	0xbdabde7d	-0.08392046
58	0x3eb30359	0.34963492
59	0x3dc4df35	0.09612886
60	0xbc5f4d6b	-0.013629298
61	0x3da2f6dc	0.07957241
62	0xbe458ed2	-0.19292763
63	0x3c1e8db5	0.00967734
64	0x3bb53f16	0.005531202
65	0xbdeceec3	-0.11568978
66	0xbcd53217	-0.026024861
67	0xbe1d268c	-0.15346736
68	0xbd320861	-0.043465022
69	0xbdacf795	-0.0844566
70	0xbe06da0f	-0.1316912
71	0x3d55bdf4	0.052183107
72	0xbdedcc03	-0.11611178
73	0xbd5919a3	-0.053002965
74	0x3d0c1126	0.03419604
75	0xbd407cff	-0.046994206
76	0xbf07ead5	-0.530927
77	0x3c1c0c90	0.0095244795
78	0xbced7546	-0.028986584
79	0x3dc05be0	0.09392524
80	0xbe057334	-0.13032228
81	0xbeec31e4	-0.46131814
82	0xbdbab968	-0.09117395
83	0xbd2d75a7	-0.04234853
84	0xbe67d7fa	-0.22640982
85	0xbdb36f1e	-0.08761428
86	0x3cd42425	0.025896141
87	0x3ea5ee83	0.32408533
88	0x3d5b8252	0.05359108
89	0xbe2142a2	-0.15748075
90	0x3c37836f	0.01120077
91	0xbec1ee16	-0.37876958
92	0x3e8f27c2	0.2796002
93	0x3b786059	0.0037899225
94	0xbe218ad7	-0.1577562
95	0xbe159c2c	-0.14610356
96	0xbea98057	-0.33105728
97	0x3cd84d14	0.026403941
98	0x3d80bf8f	0.06286537
99	0xbca42794	-0.020038404

seq.4.weight f4 [2, 100]
0	0xbe89071e	-0.26763242
1	0x3d86c262	0.06580044
2	0xbf16e63b	-0.58945054
3	0xbf20d2bb	-0.6282155
4	0x3d811aab	0.06303915
5	0xbdb02be9	-0.08602125
6	0xbf37bcf4	-0.71772695
7	0xc01c9e12	-2.4471478
8	0xbcf1cde4	-0.029517122
9	0x3d3bf174	0.045884565
10	0xc01aab3a	-2.4167008
11	0xbd5a8954	-0.053353623
12	0x3f788f3e	0.9709357
13	0xbfe5c1db	-1.7949785
14	0x3d33bfb9	0.043884013
15	0x3fa84b99	1.314807
16	0xbbde74a1	-0.0067888056
17	0xbc0735a0	-0.008252531
18	0x3ce5c0ce	0.028046038
19	0x3d66790e	0.05626779
20	0xbf5f60c5	-0.87257034
21	0xbfebd340	-1.8423843
22	0xbe2331de	-0.15936992
23	0xbe43f81b	-0.19137613
24	0x3f8b6f37	1.0893315
25	0xbfb9c47e	-1.451309
26	0xbd2efbda	-0.042720653
27	0x3c21d1b7	0.00987666
28	0x3d2b05c1	0.041753534
29	0x3bf42aaa	0.007451375
30	0xbda6decf	-0.08147966
31	0xbdacb1ea	-0.08432372
32	0x3eab77c2	0.33489805
33	0x3e6790ad	0.22613783
34	0xbc4a7237	-0.0123563325
35	0x3c758c65	0.014987086
36	0x3d37bc08	0.044857055
37	0xc0980f24	-4.751848
38	0x3f75f7f8	0.96081495
39	0x40a95bfb	5.292478
40	0x3db685a4	0.08912209
41	0x3fa3250d	1.2745682
42	0xbcbffc8d	-0.023435855
43	0xbef499d2	-0.47773606
44	0x3d4c1221	0.049821977
45	0x3e3c9f5f	0.1842017
46	0xc0216966	-2.522058
47	0x3efec84b	0.49762186
48	0xbbdf588b	-0.006815975
49	0x3da77e72	0.081784144
50	0xbf39ea0d	-0.7262276
51	0x3dc26b56	0.09493129
52	0x3d8370c0	0.0641799
53	0x3f7846d7	0.96983093
54	0x4025e6e5	2.5922177
55	0x3c8e1d2c	0.017347895
56	0x3c9c1537	0.019053085
57	0xbe46a81e	-0.19400069
58	0xbfc4e020	-1.5380898
59	0xbe680018	-0.22656286
60	0x3d0e4d91	0.03474194
61	0x3f9c2fea	1.2202122
62	0x3f4fbaba	0.811443
63	0x3c3e5145	0.011616056
64	0x3d689a63	0.05678786
65	0x3d4005c1	0.046880487
66	0x3d722409	0.059116397
67	0xbe346a9e	-0.17618796
68	0x3d7b4839	0.061348174
69	0x3d4bab48	0.049723893
70	0x40699e2e	3.6502795
71	0xbd0356f3	-0.032065343
72	0xbe8fa404	-0.28054821
73	0xbb578dbc	-0.0032890877
74	0x3d8cc825	0.06874112
75	0x3cc15d58	0.02360408
76	0xbdc13ab8	-0.09435028
77	0xbd4677ee	-0.048454218
78	0xbe499bfd	-0.19688411
79	0xbe1b98e3	-0.1519504
80	0xbdc3b1ef	-0.095554225
81	0xba8ec230	-0.0010891613
82	0x3d5d63e8	0.054050356
83	0x3f5e5b85	0.868584
84	0xbf794c27	-0.97381824
85	0x3f9ea6c1	1.2394639
86	0xbe26c182	-0.16284755
87	0xbecb6133	-0.39722595
88	0x3d417947	0.0472348
89	0xbf7fb5a4	-0.99886537
90	0x3d126a4e	0.03574591
91	0xbe2ecf33	-0.17071228
92	0x3f85e9df	1.0461997
93	0xbd111a65	-0.035425562
94	0xbed1e630	-0.40995932
95	0x3f148d78	0.58028364
96	0xbe0732aa	-0.1320292
97	0x40547805	3.3198254
98	0xbc4be4ef	-0.012444719
99	0xbd2c2530	-0.042027652
100	0xbf282275	-0.6567758
101	0xbe88d1f8	-0.26722693
102	0xbe4fb616	-0.20284304
103	0xbebe2d49	-0.37143925
104	0xbec29103	-0.3800126
105	0xbe198e6e	-0.14995739
106	0xbe985e6e	-0.29759544
107	0x3e81050e	0.2519917
108	0xbe2db3b3	-0.16963081
109	0x3f32e278	0.69876814
110	0xbe4a4927	-0.19754468
111	0xbe71b14d	-0.23602791
112	0x3ea8f079	0.32995966
113	0xbed928f8	-0.4241407
114	0xbe94b1ee	-0.29042
115	0xbe7af3cd	-0.24507065
116	0xbd2ccd8b	-0.04218821
117	0xbdd52095	-0.10406605
118	0xbe15aadb	-0.14615957
119	0xbde62f80	-0.11239529
120	0xbf3681f0	-0.7129202
121	0x3ea5145d	0.32242098
122	0xbf02115b	-0.5080773
123	0x3e92a03e	0.2863788
124	0xbdc152a0	-0.094395876
125	0x3e5cd307	0.21564876
126	0xbea47651	-0.32121518
127	0xbe156fad	-0.14593382
128	0x3eb08952	0.34479767
129	0xbe2db08b	-0.16961877
130	0xbe389308	-0.18024838
131	0xbe8466fe	-0.25859827
132	0x3f1f0152	0.6211139
133	0xbeb45647	-0.35222074
134	0xbe83ff45	-0.25780693
135	0xbeb74c60	-0.35800457
136	0x3cbf8c79	0.023382412
137	0xbabfa8c1	-0.0014622436
138	0xbe91a0f3	-0.28443107
139	0x3d74f43e	0.05980324
140	0xbe3b70e0	-0.18304777
141	0xbee00994	-0.43757308
142	0xbe32fb15	-0.17478593
143	0xbec2b604	-0.38029492
144	0xbe83d434	-0.25747836
145	0xbebfa3fa	-0.37429792
146	0x3d9c94a3	0.07645538
147	0xbf1ab427	-0.6043114
148	0xbd803c3d	-0.062614895
149	0xbee6c69c	-0.45073402
150	0x3eb010df	0.34387872
151	0xbef0cabf	-0.47029683
152	0x3ed56760	0.4168043
153	0xbe3bbe32	-0.18334273
154	0x3d9802a0	0.07422376
155	0xbe116b4d	-0.14201088
156	0x3e9d51aa	0.30726367
157	0xbe6a26bd	-0.2286634
158	0x3dda7b95	0.10668103
159	0xbeea877d	-0.45806494
160	0xbe5115ca	-0.20418468
161	0xbe37c61a	-0.17946663
162	0xbf0c150e	-0.54719627
163	0xbf0276b1	-0.5096236
164	0xbe7bd728	-0.24593794
165	0xbd64a5bb	-0.055822115
166	0xbe51053e	-0.20412156
167	0xbef3d435	-0.4762284
168	0x3f006d95	0.5016721
169	0xbea53164	-0.32264245
170	0xbde30058	-0.1108405
171	0xbe9f0f5a	-0.310664
172	0x3ee6145c	0.44937408
173	0xbea8ecd6	-0.3299319
174	0xbe45e254	-0.19324619
175	0xbe73018f	-0.23731063
176	0x3e83d424	0.25747788
177	0xbeea8ab4	-0.45808947
178	0x3f22cb8c	0.6359184
179	0xbf25885c	-0.6466119
180	0xbeb6f2af	-0.35732028
181	0x3e8f77e6	0.28021163
182	0xbe28026c	-0.16407174
183	0xbe233a32	-0.15940168
184	0xbe7f4e0f	-0.2493212
185	0x3e52c79d	0.20583959
186	0x3ef77bc8	0.48336625
187	0x3eb17f9f	0.3466768
188	0xbebee55a	-0.37284356
189	0xbeb4241b	-0.35183796
190	0xbe9350c4	-0.28772557
191	0xbf1d2e6a	-0.6139895
192	0x3e06085c	0.13089126
193	0xbe35a3c4	-0.17738253
194	0x3ea0f0df	0.3143377
195	0x3ed52166	0.41627043
196	0xbea4d5d5	-0.3219439
197	0xbe607fc4	-0.21923739
198	0xbe65a40c	-0.2242586
199	0xbe6b8eec	-0.23003739

seq.4.bias f4 [2]
0	0x3e5a4b2b	0.21317737
1	0x3ea93fbc	0.33056438
